…
      'ENABLE': False,
      'NUM_ENSEMBLE_VIEWS': 10,
      'NUM_SPATIAL_CROPS': 3},
'TRAIN': {'AUTO_RESUME': True,
       'BATCH_SIZE': 64,
       'CHECKPOINT_FILE_PATH': '/home/chenxi/SlowFast_tst/SlowFast-master0329/SlowFast-master/tools/checkpoints_2/SLOWFAST_8x8_R50.pkl',
       'CHECKPOINT_INFLATE': False,
       'CHECKPOINT_PERIOD': 1,
       'CHECKPOINT_TYPE': 'caffe2',
       'DATASET': 'kinetics',
       'ENABLE': True,
       'EVAL_PERIOD': 20}}
[INFmisc.py:   51]: Model:
DistributedDataParallel(
(module): SlowFastModel(
(s1): VideoModelStem(
  (pathway0_stem): ResNetBasicStem(
    (conv): Conv3d(3, 64, kernel_size=[1, 7, 7], stride=[1, 2, 2], padding=[0, 3, 3], bias=False)
    (bn): BatchNorm3d(64, eps=1e-05, momentum=0.1, affine=True, track_running_stats=True)
    (relu): ReLU(inplace=True)
    (pool_layer): MaxPool3d(kernel_size=[1, 3, 3], stride=[1, 2, 2], padding=[0, 1, 1], dilation=1, ceil_mode=False)
  )
  (pathway1_stem): ResNetBasicStem(
    (conv): Conv3d(3, 8, kernel_size=[5, 7, 7], stride=[1, 2, 2], padding=[2, 3, 3], bias=False)
    (bn): BatchNorm3d(8, eps=1e-05, momentum=0.1, affine=True, track_running_stats=True)
    (relu): ReLU(inplace=True)
    (pool_layer): MaxPool3d(kernel_size=[1, 3, 3], stride=[1, 2, 2], padding=[0, 1, 1], dilation=1, ceil_mode=False)
  )
)
(s1_fuse): FuseFastToSlow(
  (conv_f2s): Conv3d(8, 16, kernel_size=[7, 1, 1], stride=[4, 1, 1], padding=[3, 0, 0], bias=False)
  (bn): BatchNorm3d(16, eps=1e-05, momentum=0.1, affine=True, track_running_stats=True)
  (relu): ReLU(inplace=True)
)
(s2): ResStage(
  (pathway0_res0): ResBlock(
    (branch1): Conv3d(80, 256, kernel_size=(1, 1, 1), stride=[1, 1, 1], bias=False)
    (branch1_bn): BatchNorm3d(256, eps=1e-05, momentum=0.1, affine=True, track_running_stats=True)
    (branch2): BottleneckTransform(
      (a): Conv3d(80, 64, kernel_size=[1, 1, 1], stride=[1, 1, 1], padding=[0, 0, 0], bias=False)
      (a_bn): BatchNorm3d(64, eps=1e-05, momentum=0.1, affine=True, track_running_stats=True)
      (a_relu): ReLU(inplace=True)
      (b): Conv3d(64, 64, kernel_size=[1, 3, 3], stride=[1, 1, 1], padding=[0, 1, 1], dilation=[1, 1, 1], bias=False)
      (b_bn): BatchNorm3d(64, eps=1e-05, momentum=0.1, affine=True, track_running_stats=True)
      (b_relu): ReLU(inplace=True)
      (c): Conv3d(64, 256, kernel_size=[1, 1, 1], stride=[1, 1, 1], padding=[0, 0, 0], bias=False)
      (c_bn): BatchNorm3d(256, eps=1e-05, momentum=0.1, affine=True, track_running_stats=True)
    )
    (relu): ReLU(inplace=True)
  )
  (pathway0_res1): ResBlock(
    (branch2): BottleneckTransform(
      (a): Conv3d(256, 64, kernel_size=[1, 1, 1], stride=[1, 1, 1], padding=[0, 0, 0], bias=False)
      (a_bn): BatchNorm3d(64, eps=1e-05, momentum=0.1, affine=True, track_running_stats=True)
      (a_relu): ReLU(inplace=True)
      (b): Conv3d(64, 64, kernel_size=[1, 3, 3], stride=[1, 1, 1], padding=[0, 1, 1], dilation=[1, 1, 1], bias=False)
      (b_bn): BatchNorm3d(64, eps=1e-05, momentum=0.1, affine=True, track_running_stats=True)
      (b_relu): ReLU(inplace=True)
      (c): Conv3d(64, 256, kernel_size=[1, 1, 1], stride=[1, 1, 1], padding=[0, 0, 0], bias=False)
      (c_bn): BatchNorm3d(256, eps=1e-05, momentum=0.1, affine=True, track_running_stats=True)
    )
    (relu): ReLU(inplace=True)
  )
  (pathway0_res2): ResBlock(
    (branch2): BottleneckTransform(
      (a): Conv3d(256, 64, kernel_size=[1, 1, 1], stride=[1, 1, 1], padding=[0, 0, 0], bias=False)
      (a_bn): BatchNorm3d(64, eps=1e-05, momentum=0.1, affine=True, track_running_stats=True)
      (a_relu): ReLU(inplace=True)
      (b): Conv3d(64, 64, kernel_size=[1, 3, 3], stride=[1, 1, 1], padding=[0, 1, 1], dilation=[1, 1, 1], bias=False)
      (b_bn): BatchNorm3d(64, eps=1e-05, momentum=0.1, affine=True, track_running_stats=True)
      (b_relu): ReLU(inplace=True)
      (c): Conv3d(64, 256, kernel_size=[1, 1, 1], stride=[1, 1, 1], padding=[0, 0, 0], bias=False)
      (c_bn): BatchNorm3d(256, eps=1e-05, momentum=0.1, affine=True, track_running_stats=True)
    )
    (relu): ReLU(inplace=True)
  )
  (pathway1_res0): ResBlock(
    (branch1): Conv3d(8, 32, kernel_size=(1, 1, 1), stride=[1, 1, 1], bias=False)
    (branch1_bn): BatchNorm3d(32, eps=1e-05, momentum=0.1, affine=True, track_running_stats=True)
    (branch2): BottleneckTransform(
      (a): Conv3d(8, 8, kernel_size=[3, 1, 1], stride=[1, 1, 1], padding=[1, 0, 0], bias=False)
      (a_bn): BatchNorm3d(8, eps=1e-05, momentum=0.1, affine=True, track_running_stats=True)
      (a_relu): ReLU(inplace=True)
      (b): Conv3d(8, 8, kernel_size=[1, 3, 3], stride=[1, 1, 1], padding=[0, 1, 1], dilation=[1, 1, 1], bias=False)
      (b_bn): BatchNorm3d(8, eps=1e-05, momentum=0.1, affine=True, track_running_stats=True)
      (b_relu): ReLU(inplace=True)
      (c): Conv3d(8, 32, kernel_size=[1, 1, 1], stride=[1, 1, 1], padding=[0, 0, 0], bias=False)
      (c_bn): BatchNorm3d(32, eps=1e-05, momentum=0.1, affine=True, track_running_stats=True)
    )
    (relu): ReLU(inplace=True)
  )
  (pathway1_res1): ResBlock(
    (branch2): BottleneckTransform(
      (a): Conv3d(32, 8, kernel_size=[3, 1, 1], stride=[1, 1, 1], padding=[1, 0, 0], bias=False)
      (a_bn): BatchNorm3d(8, eps=1e-05, momentum=0.1, affine=True, track_running_stats=True)
      (a_relu): ReLU(inplace=True)
      (b): Conv3d(8, 8, kernel_size=[1, 3, 3], stride=[1, 1, 1], padding=[0, 1, 1], dilation=[1, 1, 1], bias=False)
      (b_bn): BatchNorm3d(8, eps=1e-05, momentum=0.1, affine=True, track_running_stats=True)
      (b_relu): ReLU(inplace=True)
      (c): Conv3d(8, 32, kernel_size=[1, 1, 1], stride=[1, 1, 1], padding=[0, 0, 0], bias=False)
      (c_bn): BatchNorm3d(32, eps=1e-05, momentum=0.1, affine=True, track_running_stats=True)
    )
    (relu): ReLU(inplace=True)
  )
  (pathway1_res2): ResBlock(
    (branch2): BottleneckTransform(
      (a): Conv3d(32, 8, kernel_size=[3, 1, 1], stride=[1, 1, 1], padding=[1, 0, 0], bias=False)
      (a_bn): BatchNorm3d(8, eps=1e-05, momentum=0.1, affine=True, track_running_stats=True)
      (a_relu): ReLU(inplace=True)
      (b): Conv3d(8, 8, kernel_size=[1, 3, 3], stride=[1, 1, 1], padding=[0, 1, 1], dilation=[1, 1, 1], bias=False)
      (b_bn): BatchNorm3d(8, eps=1e-05, momentum=0.1, affine=True, track_running_stats=True)
      (b_relu): ReLU(inplace=True)
      (c): Conv3d(8, 32, kernel_size=[1, 1, 1], stride=[1, 1, 1], padding=[0, 0, 0], bias=False)
      (c_bn): BatchNorm3d(32, eps=1e-05, momentum=0.1, affine=True, track_running_stats=True)
    )
    (relu): ReLU(inplace=True)
  )
)
(s2_fuse): FuseFastToSlow(
  (conv_f2s): Conv3d(32, 64, kernel_size=[7, 1, 1], stride=[4, 1, 1], padding=[3, 0, 0], bias=False)
  (bn): BatchNorm3d(64, eps=1e-05, momentum=0.1, affine=True, track_running_stats=True)
  (relu): ReLU(inplace=True)
)
(pathway0_pool): MaxPool3d(kernel_size=[1, 1, 1], stride=[1, 1, 1], padding=[0, 0, 0], dilation=1, ceil_mode=False)
(pathway1_pool): MaxPool3d(kernel_size=[1, 1, 1], stride=[1, 1, 1], padding=[0, 0, 0], dilation=1, ceil_mode=False)
(s3): ResStage(
  (pathway0_res0): ResBlock(
    (branch1): Conv3d(320, 512, kernel_size=(1, 1, 1), stride=[1, 2, 2], bias=False)
    (branch1_bn): BatchNorm3d(512, eps=1e-05, momentum=0.1, affine=True, track_running_stats=True)
    (branch2): BottleneckTransform(
      (a): Conv3d(320, 128, kernel_size=[1, 1, 1], stride=[1, 1, 1], padding=[0, 0, 0], bias=False)
      (a_bn): BatchNorm3d(128, eps=1e-05, momentum=0.1, affine=True, track_running_stats=True)
      (a_relu): ReLU(inplace=True)
      (b): Conv3d(128, 128, kernel_size=[1, 3, 3], stride=[1, 2, 2], padding=[0, 1, 1], dilation=[1, 1, 1], bias=False)
      (b_bn): BatchNorm3d(128, eps=1e-05, momentum=0.1, affine=True, track_running_stats=True)
      (b_relu): ReLU(inplace=True)
      (c): Conv3d(128, 512, kernel_size=[1, 1, 1], stride=[1, 1, 1], padding=[0, 0, 0], bias=False)
      (c_bn): BatchNorm3d(512, eps=1e-05, momentum=0.1, affine=True, track_running_stats=True)
    )
    (relu): ReLU(inplace=True)
  )
  (pathway0_res1): ResBlock(
    (branch2): BottleneckTransform(
      (a): Conv3d(512, 128, kernel_size=[1, 1, 1], stride=[1, 1, 1], padding=[0, 0, 0], bias=False)
      (a_bn): BatchNorm3d(128, eps=1e-05, momentum=0.1, affine=True, track_running_stats=True)
      (a_relu): ReLU(inplace=True)
      (b): Conv3d(128, 128, kernel_size=[1, 3, 3], stride=[1, 1, 1], padding=[0, 1, 1], dilation=[1, 1, 1], bias=False)
      (b_bn): BatchNorm3d(128, eps=1e-05, momentum=0.1, affine=True, track_running_stats=True)
      (b_relu): ReLU(inplace=True)
      (c): Conv3d(128, 512, kernel_size=[1, 1, 1], stride=[1, 1, 1], padding=[0, 0, 0], bias=False)
      (c_bn): BatchNorm3d(512, eps=1e-05, momentum=0.1, affine=True, track_running_stats=True)
    )
    (relu): ReLU(inplace=True)
  )
  (pathway0_res2): ResBlock(
    (branch2): BottleneckTransform(
      (a): Conv3d(512, 128, kernel_size=[1, 1, 1], stride=[1, 1, 1], padding=[0, 0, 0], bias=False)
      (a_bn): BatchNorm3d(128, eps=1e-05, momentum=0.1, affine=True, track_running_stats=True)
      (a_relu): ReLU(inplace=True)
      (b): Conv3d(128, 128, kernel_size=[1, 3, 3], stride=[1, 1, 1], padding=[0, 1, 1], dilation=[1, 1, 1], bias=False)
      (b_bn): BatchNorm3d(128, eps=1e-05, momentum=0.1, affine=True, track_running_stats=True)
      (b_relu): ReLU(inplace=True)
      (c): Conv3d(128, 512, kernel_size=[1, 1, 1], stride=[1, 1, 1], padding=[0, 0, 0], bias=False)
      (c_bn): BatchNorm3d(512, eps=1e-05, momentum=0.1, affine=True, track_running_stats=True)
    )
    (relu): ReLU(inplace=True)
  )
  (pathway0_res3): ResBlock(
    (branch2): BottleneckTransform(
      (a): Conv3d(512, 128, kernel_size=[1, 1, 1], stride=[1, 1, 1], padding=[0, 0, 0], bias=False)
      (a_bn): BatchNorm3d(128, eps=1e-05, momentum=0.1, affine=True, track_running_stats=True)
      (a_relu): ReLU(inplace=True)
      (b): Conv3d(128, 128, kernel_size=[1, 3, 3], stride=[1, 1, 1], padding=[0, 1, 1], dilation=[1, 1, 1], bias=False)
      (b_bn): BatchNorm3d(128, eps=1e-05, momentum=0.1, affine=True, track_running_stats=True)
      (b_relu): ReLU(inplace=True)
      (c): Conv3d(128, 512, kernel_size=[1, 1, 1], stride=[1, 1, 1], padding=[0, 0, 0], bias=False)
      (c_bn): BatchNorm3d(512, eps=1e-05, momentum=0.1, affine=True, track_running_stats=True)
    )
    (relu): ReLU(inplace=True)
  )
  (pathway1_res0): ResBlock(
    (branch1): Conv3d(32, 64, kernel_size=(1, 1, 1), stride=[1, 2, 2], bias=False)
    (branch1_bn): BatchNorm3d(64, eps=1e-05, momentum=0.1, affine=True, track_running_stats=True)
    (branch2): BottleneckTransform(
      (a): Conv3d(32, 16, kernel_size=[3, 1, 1], stride=[1, 1, 1], padding=[1, 0, 0], bias=False)
      (a_bn): BatchNorm3d(16, eps=1e-05, momentum=0.1, affine=True, track_running_stats=True)
      (a_relu): ReLU(inplace=True)
      (b): Conv3d(16, 16, kernel_size=[1, 3, 3], stride=[1, 2, 2], padding=[0, 1, 1], dilation=[1, 1, 1], bias=False)
      (b_bn): BatchNorm3d(16, eps=1e-05, momentum=0.1, affine=True, track_running_stats=True)
      (b_relu): ReLU(inplace=True)
      (c): Conv3d(16, 64, kernel_size=[1, 1, 1], stride=[1, 1, 1], padding=[0, 0, 0], bias=False)
      (c_bn): BatchNorm3d(64, eps=1e-05, momentum=0.1, affine=True, track_running_stats=True)
    )
    (relu): ReLU(inplace=True)
  )
  (pathway1_res1): ResBlock(
    (branch2): BottleneckTransform(
      (a): Conv3d(64, 16, kernel_size=[3, 1, 1], stride=[1, 1, 1], padding=[1, 0, 0], bias=False)
      (a_bn): BatchNorm3d(16, eps=1e-05, momentum=0.1, affine=True, track_running_stats=True)
      (a_relu): ReLU(inplace=True)
      (b): Conv3d(16, 16, kernel_size=[1, 3, 3], stride=[1, 1, 1], padding=[0, 1, 1], dilation=[1, 1, 1], bias=False)
      (b_bn): BatchNorm3d(16, eps=1e-05, momentum=0.1, affine=True, track_running_stats=True)
      (b_relu): ReLU(inplace=True)
      (c): Conv3d(16, 64, kernel_size=[1, 1, 1], stride=[1, 1, 1], padding=[0, 0, 0], bias=False)
      (c_bn): BatchNorm3d(64, eps=1e-05, momentum=0.1, affine=True, track_running_stats=True)
    )
    (relu): ReLU(inplace=True)
  )
  (pathway1_res2): ResBlock(
    (branch2): BottleneckTransform(
      (a): Conv3d(64, 16, kernel_size=[3, 1, 1], stride=[1, 1, 1], padding=[1, 0, 0], bias=False)
      (a_bn): BatchNorm3d(16, eps=1e-05, momentum=0.1, affine=True, track_running_stats=True)
      (a_relu): ReLU(inplace=True)
      (b): Conv3d(16, 16, kernel_size=[1, 3, 3], stride=[1, 1, 1], padding=[0, 1, 1], dilation=[1, 1, 1], bias=False)
      (b_bn): BatchNorm3d(16, eps=1e-05, momentum=0.1, affine=True, track_running_stats=True)
      (b_relu): ReLU(inplace=True)
      (c): Conv3d(16, 64, kernel_size=[1, 1, 1], stride=[1, 1, 1], padding=[0, 0, 0], bias=False)
      (c_bn): BatchNorm3d(64, eps=1e-05, momentum=0.1, affine=True, track_running_stats=True)
    )
    (relu): ReLU(inplace=True)
  )
  (pathway1_res3): ResBlock(
    (branch2): BottleneckTransform(
      (a): Conv3d(64, 16, kernel_size=[3, 1, 1], stride=[1, 1, 1], padding=[1, 0, 0], bias=False)
      (a_bn): BatchNorm3d(16, eps=1e-05, momentum=0.1, affine=True, track_running_stats=True)
      (a_relu): ReLU(inplace=True)
      (b): Conv3d(16, 16, kernel_size=[1, 3, 3], stride=[1, 1, 1], padding=[0, 1, 1], dilation=[1, 1, 1], bias=False)
      (b_bn): BatchNorm3d(16, eps=1e-05, momentum=0.1, affine=True, track_running_stats=True)
      (b_relu): ReLU(inplace=True)
      (c): Conv3d(16, 64, kernel_size=[1, 1, 1], stride=[1, 1, 1], padding=[0, 0, 0], bias=False)
      (c_bn): BatchNorm3d(64, eps=1e-05, momentum=0.1, affine=True, track_running_stats=True)
    )
    (relu): ReLU(inplace=True)
  )
)
(s3_fuse): FuseFastToSlow(
  (conv_f2s): Conv3d(64, 128, kernel_size=[7, 1, 1], stride=[4, 1, 1], padding=[3, 0, 0], bias=False)
  (bn): BatchNorm3d(128, eps=1e-05, momentum=0.1, affine=True, track_running_stats=True)
  (relu): ReLU(inplace=True)
)
(s4): ResStage(
  (pathway0_res0): ResBlock(
    (branch1): Conv3d(640, 1024, kernel_size=(1, 1, 1), stride=[1, 2, 2], bias=False)
    (branch1_bn): BatchNorm3d(1024, eps=1e-05, momentum=0.1, affine=True, track_running_stats=True)
    (branch2): BottleneckTransform(
      (a): Conv3d(640, 256, kernel_size=[3, 1, 1], stride=[1, 1, 1], padding=[1, 0, 0], bias=False)
      (a_bn): BatchNorm3d(256, eps=1e-05, momentum=0.1, affine=True, track_running_stats=True)
      (a_relu): ReLU(inplace=True)
      (b): Conv3d(256, 256, kernel_size=[1, 3, 3], stride=[1, 2, 2], padding=[0, 1, 1], dilation=[1, 1, 1], bias=False)
      (b_bn): BatchNorm3d(256, eps=1e-05, momentum=0.1, affine=True, track_running_stats=True)
      (b_relu): ReLU(inplace=True)
      (c): Conv3d(256, 1024, kernel_size=[1, 1, 1], stride=[1, 1, 1], padding=[0, 0, 0], bias=False)
      (c_bn): BatchNorm3d(1024, eps=1e-05, momentum=0.1, affine=True, track_running_stats=True)
    )
    (relu): ReLU(inplace=True)
  )
  (pathway0_res1): ResBlock(
    (branch2): BottleneckTransform(
      (a): Conv3d(1024, 256, kernel_size=[3, 1, 1], stride=[1, 1, 1], padding=[1, 0, 0], bias=False)
      (a_bn): BatchNorm3d(256, eps=1e-05, momentum=0.1, affine=True, track_running_stats=True)
      (a_relu): ReLU(inplace=True)
      (b): Conv3d(256, 256, kernel_size=[1, 3, 3], stride=[1, 1, 1], padding=[0, 1, 1], dilation=[1, 1, 1], bias=False)
      (b_bn): BatchNorm3d(256, eps=1e-05, momentum=0.1, affine=True, track_running_stats=True)
      (b_relu): ReLU(inplace=True)
      (c): Conv3d(256, 1024, kernel_size=[1, 1, 1], stride=[1, 1, 1], padding=[0, 0, 0], bias=False)
      (c_bn): BatchNorm3d(1024, eps=1e-05, momentum=0.1, affine=True, track_running_stats=True)
    )
    (relu): ReLU(inplace=True)
  )
  (pathway0_res2): ResBlock(
    (branch2): BottleneckTransform(
      (a): Conv3d(1024, 256, kernel_size=[3, 1, 1], stride=[1, 1, 1], padding=[1, 0, 0], bias=False)
      (a_bn): BatchNorm3d(256, eps=1e-05, momentum=0.1, affine=True, track_running_stats=True)
      (a_relu): ReLU(inplace=True)
      (b): Conv3d(256, 256, kernel_size=[1, 3, 3], stride=[1, 1, 1], padding=[0, 1, 1], dilation=[1, 1, 1], bias=False)
      (b_bn): BatchNorm3d(256, eps=1e-05, momentum=0.1, affine=True, track_running_stats=True)
      (b_relu): ReLU(inplace=True)
      (c): Conv3d(256, 1024, kernel_size=[1, 1, 1], stride=[1, 1, 1], padding=[0, 0, 0], bias=False)
      (c_bn): BatchNorm3d(1024, eps=1e-05, momentum=0.1, affine=True, track_running_stats=True)
    )
    (relu): ReLU(inplace=True)
  )
  (pathway0_res3): ResBlock(
    (branch2): BottleneckTransform(
      (a): Conv3d(1024, 256, kernel_size=[3, 1, 1], stride=[1, 1, 1], padding=[1, 0, 0], bias=False)
      (a_bn): BatchNorm3d(256, eps=1e-05, momentum=0.1, affine=True, track_running_stats=True)
      (a_relu): ReLU(inplace=True)
      (b): Conv3d(256, 256, kernel_size=[1, 3, 3], stride=[1, 1, 1], padding=[0, 1, 1], dilation=[1, 1, 1], bias=False)
      (b_bn): BatchNorm3d(256, eps=1e-05, momentum=0.1, affine=True, track_running_stats=True)
      (b_relu): ReLU(inplace=True)
      (c): Conv3d(256, 1024, kernel_size=[1, 1, 1], stride=[1, 1, 1], padding=[0, 0, 0], bias=False)
      (c_bn): BatchNorm3d(1024, eps=1e-05, momentum=0.1, affine=True, track_running_stats=True)
    )
    (relu): ReLU(inplace=True)
  )
  (pathway0_res4): ResBlock(
    (branch2): BottleneckTransform(
      (a): Conv3d(1024, 256, kernel_size=[3, 1, 1], stride=[1, 1, 1], padding=[1, 0, 0], bias=False)
      (a_bn): BatchNorm3d(256, eps=1e-05, momentum=0.1, affine=True, track_running_stats=True)
      (a_relu): ReLU(inplace=True)
      (b): Conv3d(256, 256, kernel_size=[1, 3, 3], stride=[1, 1, 1], padding=[0, 1, 1], dilation=[1, 1, 1], bias=False)
      (b_bn): BatchNorm3d(256, eps=1e-05, momentum=0.1, affine=True, track_running_stats=True)
      (b_relu): ReLU(inplace=True)
      (c): Conv3d(256, 1024, kernel_size=[1, 1, 1], stride=[1, 1, 1], padding=[0, 0, 0], bias=False)
      (c_bn): BatchNorm3d(1024, eps=1e-05, momentum=0.1, affine=True, track_running_stats=True)
    )
    (relu): ReLU(inplace=True)
  )
  (pathway0_res5): ResBlock(
    (branch2): BottleneckTransform(
      (a): Conv3d(1024, 256, kernel_size=[3, 1, 1], stride=[1, 1, 1], padding=[1, 0, 0], bias=False)
      (a_bn): BatchNorm3d(256, eps=1e-05, momentum=0.1, affine=True, track_running_stats=True)
      (a_relu): ReLU(inplace=True)
      (b): Conv3d(256, 256, kernel_size=[1, 3, 3], stride=[1, 1, 1], padding=[0, 1, 1], dilation=[1, 1, 1], bias=False)
      (b_bn): BatchNorm3d(256, eps=1e-05, momentum=0.1, affine=True, track_running_stats=True)
      (b_relu): ReLU(inplace=True)
      (c): Conv3d(256, 1024, kernel_size=[1, 1, 1], stride=[1, 1, 1], padding=[0, 0, 0], bias=False)
      (c_bn): BatchNorm3d(1024, eps=1e-05, momentum=0.1, affine=True, track_running_stats=True)
    )
    (relu): ReLU(inplace=True)
  )
  (pathway1_res0): ResBlock(
    (branch1): Conv3d(64, 128, kernel_size=(1, 1, 1), stride=[1, 2, 2], bias=False)
    (branch1_bn): BatchNorm3d(128, eps=1e-05, momentum=0.1, affine=True, track_running_stats=True)
    (branch2): BottleneckTransform(
      (a): Conv3d(64, 32, kernel_size=[3, 1, 1], stride=[1, 1, 1], padding=[1, 0, 0], bias=False)
      (a_bn): BatchNorm3d(32, eps=1e-05, momentum=0.1, affine=True, track_running_stats=True)
      (a_relu): ReLU(inplace=True)
      (b): Conv3d(32, 32, kernel_size=[1, 3, 3], stride=[1, 2, 2], padding=[0, 1, 1], dilation=[1, 1, 1], bias=False)
      (b_bn): BatchNorm3d(32, eps=1e-05, momentum=0.1, affine=True, track_running_stats=True)
      (b_relu): ReLU(inplace=True)
      (c): Conv3d(32, 128, kernel_size=[1, 1, 1], stride=[1, 1, 1], padding=[0, 0, 0], bias=False)
      (c_bn): BatchNorm3d(128, eps=1e-05, momentum=0.1, affine=True, track_running_stats=True)
    )
    (relu): ReLU(inplace=True)
  )
  (pathway1_res1): ResBlock(
    (branch2): BottleneckTransform(
      (a): Conv3d(128, 32, kernel_size=[3, 1, 1], stride=[1, 1, 1], padding=[1, 0, 0], bias=False)
      (a_bn): BatchNorm3d(32, eps=1e-05, momentum=0.1, affine=True, track_running_stats=True)
      (a_relu): ReLU(inplace=True)
      (b): Conv3d(32, 32, kernel_size=[1, 3, 3], stride=[1, 1, 1], padding=[0, 1, 1], dilation=[1, 1, 1], bias=False)
      (b_bn): BatchNorm3d(32, eps=1e-05, momentum=0.1, affine=True, track_running_stats=True)
      (b_relu): ReLU(inplace=True)
      (c): Conv3d(32, 128, kernel_size=[1, 1, 1], stride=[1, 1, 1], padding=[0, 0, 0], bias=False)
      (c_bn): BatchNorm3d(128, eps=1e-05, momentum=0.1, affine=True, track_running_stats=True)
    )
    (relu): ReLU(inplace=True)
  )
  (pathway1_res2): ResBlock(
    (branch2): BottleneckTransform(
      (a): Conv3d(128, 32, kernel_size=[3, 1, 1], stride=[1, 1, 1], padding=[1, 0, 0], bias=False)
      (a_bn): BatchNorm3d(32, eps=1e-05, momentum=0.1, affine=True, track_running_stats=True)
      (a_relu): ReLU(inplace=True)
      (b): Conv3d(32, 32, kernel_size=[1, 3, 3], stride=[1, 1, 1], padding=[0, 1, 1], dilation=[1, 1, 1], bias=False)
      (b_bn): BatchNorm3d(32, eps=1e-05, momentum=0.1, affine=True, track_running_stats=True)
      (b_relu): ReLU(inplace=True)
      (c): Conv3d(32, 128, kernel_size=[1, 1, 1], stride=[1, 1, 1], padding=[0, 0, 0], bias=False)
      (c_bn): BatchNorm3d(128, eps=1e-05, momentum=0.1, affine=True, track_running_stats=True)
    )
    (relu): ReLU(inplace=True)
  )
  (pathway1_res3): ResBlock(
    (branch2): BottleneckTransform(
      (a): Conv3d(128, 32, kernel_size=[3, 1, 1], stride=[1, 1, 1], padding=[1, 0, 0], bias=False)
      (a_bn): BatchNorm3d(32, eps=1e-05, momentum=0.1, affine=True, track_running_stats=True)
      (a_relu): ReLU(inplace=True)
      (b): Conv3d(32, 32, kernel_size=[1, 3, 3], stride=[1, 1, 1], padding=[0, 1, 1], dilation=[1, 1, 1], bias=False)
      (b_bn): BatchNorm3d(32, eps=1e-05, momentum=0.1, affine=True, track_running_stats=True)
      (b_relu): ReLU(inplace=True)
      (c): Conv3d(32, 128, kernel_size=[1, 1, 1], stride=[1, 1, 1], padding=[0, 0, 0], bias=False)
      (c_bn): BatchNorm3d(128, eps=1e-05, momentum=0.1, affine=True, track_running_stats=True)
    )
    (relu): ReLU(inplace=True)
  )
  (pathway1_res4): ResBlock(
    (branch2): BottleneckTransform(
      (a): Conv3d(128, 32, kernel_size=[3, 1, 1], stride=[1, 1, 1], padding=[1, 0, 0], bias=False)
      (a_bn): BatchNorm3d(32, eps=1e-05, momentum=0.1, affine=True, track_running_stats=True)
      (a_relu): ReLU(inplace=True)
      (b): Conv3d(32, 32, kernel_size=[1, 3, 3], stride=[1, 1, 1], padding=[0, 1, 1], dilation=[1, 1, 1], bias=False)
      (b_bn): BatchNorm3d(32, eps=1e-05, momentum=0.1, affine=True, track_running_stats=True)
      (b_relu): ReLU(inplace=True)
      (c): Conv3d(32, 128, kernel_size=[1, 1, 1], stride=[1, 1, 1], padding=[0, 0, 0], bias=False)
      (c_bn): BatchNorm3d(128, eps=1e-05, momentum=0.1, affine=True, track_running_stats=True)
    )
    (relu): ReLU(inplace=True)
  )
  (pathway1_res5): ResBlock(
    (branch2): BottleneckTransform(
      (a): Conv3d(128, 32, kernel_size=[3, 1, 1], stride=[1, 1, 1], padding=[1, 0, 0], bias=False)
      (a_bn): BatchNorm3d(32, eps=1e-05, momentum=0.1, affine=True, track_running_stats=True)
      (a_relu): ReLU(inplace=True)
      (b): Conv3d(32, 32, kernel_size=[1, 3, 3], stride=[1, 1, 1], padding=[0, 1, 1], dilation=[1, 1, 1], bias=False)
      (b_bn): BatchNorm3d(32, eps=1e-05, momentum=0.1, affine=True, track_running_stats=True)
      (b_relu): ReLU(inplace=True)
      (c): Conv3d(32, 128, kernel_size=[1, 1, 1], stride=[1, 1, 1], padding=[0, 0, 0], bias=False)
      (c_bn): BatchNorm3d(128, eps=1e-05, momentum=0.1, affine=True, track_running_stats=True)
    )
    (relu): ReLU(inplace=True)
  )
)
(s4_fuse): FuseFastToSlow(
  (conv_f2s): Conv3d(128, 256, kernel_size=[7, 1, 1], stride=[4, 1, 1], padding=[3, 0, 0], bias=False)
  (bn): BatchNorm3d(256, eps=1e-05, momentum=0.1, affine=True, track_running_stats=True)
  (relu): ReLU(inplace=True)
)
(s5): ResStage(
  (pathway0_res0): ResBlock(
    (branch1): Conv3d(1280, 2048, kernel_size=(1, 1, 1), stride=[1, 2, 2], bias=False)
    (branch1_bn): BatchNorm3d(2048, eps=1e-05, momentum=0.1, affine=True, track_running_stats=True)
    (branch2): BottleneckTransform(
      (a): Conv3d(1280, 512, kernel_size=[3, 1, 1], stride=[1, 1, 1], padding=[1, 0, 0], bias=False)
      (a_bn): BatchNorm3d(512, eps=1e-05, momentum=0.1, affine=True, track_running_stats=True)
      (a_relu): ReLU(inplace=True)
      (b): Conv3d(512, 512, kernel_size=[1, 3, 3], stride=[1, 2, 2], padding=[0, 1, 1], dilation=[1, 1, 1], bias=False)
      (b_bn): BatchNorm3d(512, eps=1e-05, momentum=0.1, affine=True, track_running_stats=True)
      (b_relu): ReLU(inplace=True)
      (c): Conv3d(512, 2048, kernel_size=[1, 1, 1], stride=[1, 1, 1], padding=[0, 0, 0], bias=False)
      (c_bn): BatchNorm3d(2048, eps=1e-05, momentum=0.1, affine=True, track_running_stats=True)
    )
    (relu): ReLU(inplace=True)
  )
  (pathway0_res1): ResBlock(
    (branch2): BottleneckTransform(
      (a): Conv3d(2048, 512, kernel_size=[3, 1, 1], stride=[1, 1, 1], padding=[1, 0, 0], bias=False)
      (a_bn): BatchNorm3d(512, eps=1e-05, momentum=0.1, affine=True, track_running_stats=True)
      (a_relu): ReLU(inplace=True)
      (b): Conv3d(512, 512, kernel_size=[1, 3, 3], stride=[1, 1, 1], padding=[0, 1, 1], dilation=[1, 1, 1], bias=False)
      (b_bn): BatchNorm3d(512, eps=1e-05, momentum=0.1, affine=True, track_running_stats=True)
      (b_relu): ReLU(inplace=True)
      (c): Conv3d(512, 2048, kernel_size=[1, 1, 1], stride=[1, 1, 1], padding=[0, 0, 0], bias=False)
      (c_bn): BatchNorm3d(2048, eps=1e-05, momentum=0.1, affine=True, track_running_stats=True)
    )
    (relu): ReLU(inplace=True)
  )
  (pathway0_res2): ResBlock(
    (branch2): BottleneckTransform(
      (a): Conv3d(2048, 512, kernel_size=[3, 1, 1], stride=[1, 1, 1], padding=[1, 0, 0], bias=False)
      (a_bn): BatchNorm3d(512, eps=1e-05, momentum=0.1, affine=True, track_running_stats=True)
      (a_relu): ReLU(inplace=True)
      (b): Conv3d(512, 512, kernel_size=[1, 3, 3], stride=[1, 1, 1], padding=[0, 1, 1], dilation=[1, 1, 1], bias=False)
      (b_bn): BatchNorm3d(512, eps=1e-05, momentum=0.1, affine=True, track_running_stats=True)
      (b_relu): ReLU(inplace=True)
      (c): Conv3d(512, 2048, kernel_size=[1, 1, 1], stride=[1, 1, 1], padding=[0, 0, 0], bias=False)
      (c_bn): BatchNorm3d(2048, eps=1e-05, momentum=0.1, affine=True, track_running_stats=True)
    )
    (relu): ReLU(inplace=True)
  )
  (pathway1_res0): ResBlock(
    (branch1): Conv3d(128, 256, kernel_size=(1, 1, 1), stride=[1, 2, 2], bias=False)
    (branch1_bn): BatchNorm3d(256, eps=1e-05, momentum=0.1, affine=True, track_running_stats=True)
    (branch2): BottleneckTransform(
      (a): Conv3d(128, 64, kernel_size=[3, 1, 1], stride=[1, 1, 1], padding=[1, 0, 0], bias=False)
      (a_bn): BatchNorm3d(64, eps=1e-05, momentum=0.1, affine=True, track_running_stats=True)
      (a_relu): ReLU(inplace=True)
      (b): Conv3d(64, 64, kernel_size=[1, 3, 3], stride=[1, 2, 2], padding=[0, 1, 1], dilation=[1, 1, 1], bias=False)
      (b_bn): BatchNorm3d(64, eps=1e-05, momentum=0.1, affine=True, track_running_stats=True)
      (b_relu): ReLU(inplace=True)
      (c): Conv3d(64, 256, kernel_size=[1, 1, 1], stride=[1, 1, 1], padding=[0, 0, 0], bias=False)
      (c_bn): BatchNorm3d(256, eps=1e-05, momentum=0.1, affine=True, track_running_stats=True)
    )
    (relu): ReLU(inplace=True)
  )
  (pathway1_res1): ResBlock(
    (branch2): BottleneckTransform(
      (a): Conv3d(256, 64, kernel_size=[3, 1, 1], stride=[1, 1, 1], padding=[1, 0, 0], bias=False)
      (a_bn): BatchNorm3d(64, eps=1e-05, momentum=0.1, affine=True, track_running_stats=True)
      (a_relu): ReLU(inplace=True)
      (b): Conv3d(64, 64, kernel_size=[1, 3, 3], stride=[1, 1, 1], padding=[0, 1, 1], dilation=[1, 1, 1], bias=False)
      (b_bn): BatchNorm3d(64, eps=1e-05, momentum=0.1, affine=True, track_running_stats=True)
      (b_relu): ReLU(inplace=True)
      (c): Conv3d(64, 256, kernel_size=[1, 1, 1], stride=[1, 1, 1], padding=[0, 0, 0], bias=False)
      (c_bn): BatchNorm3d(256, eps=1e-05, momentum=0.1, affine=True, track_running_stats=True)
    )
    (relu): ReLU(inplace=True)
  )
  (pathway1_res2): ResBlock(
    (branch2): BottleneckTransform(
      (a): Conv3d(256, 64, kernel_size=[3, 1, 1], stride=[1, 1, 1], padding=[1, 0, 0], bias=False)
      (a_bn): BatchNorm3d(64, eps=1e-05, momentum=0.1, affine=True, track_running_stats=True)
      (a_relu): ReLU(inplace=True)
      (b): Conv3d(64, 64, kernel_size=[1, 3, 3], stride=[1, 1, 1], padding=[0, 1, 1], dilation=[1, 1, 1], bias=False)
      (b_bn): BatchNorm3d(64, eps=1e-05, momentum=0.1, affine=True, track_running_stats=True)
      (b_relu): ReLU(inplace=True)
      (c): Conv3d(64, 256, kernel_size=[1, 1, 1], stride=[1, 1, 1], padding=[0, 0, 0], bias=False)
      (c_bn): BatchNorm3d(256, eps=1e-05, momentum=0.1, affine=True, track_running_stats=True)
    )
    (relu): ReLU(inplace=True)
  )
)
(head): ResNetBasicHead(
  (pathway0_avgpool): AvgPool3d(kernel_size=[2, 7, 7], stride=1, padding=0)
  (pathway1_avgpool): AvgPool3d(kernel_size=[8, 7, 7], stride=1, padding=0)
  (dropout): Dropout(p=0.5, inplace=False)
  (projection): Linear(in_features=2304, out_features=3, bias=True)
  (act): Softmax(dim=4)
)
)
)
[INFmisc.py:   52]: Params: 33,651,403
[INFmisc.py:   53]: Mem: 259.892578125 MB
[INFmisc.py:   54]: nvidia-smi
Wed Aug  5 14:44:57 2020
+-----------------------------------------------------------------------------+
| NVIDIA-SMI 430.40       Driver Versio430.40       CUDA Version: 10.1     |
|-------------------------------+----------------------+----------------------+
…
